models/expression_mlp.pth (torch, 39048 bytes, 4 tensors)

fc1.weight f4 [64, 136]
00000000: d2c3 9a3d 2518 a43d 5da8 05bd bd57 133d
00000010: 4b03 8b3d 378a 8e3d 7ceb a53d 6ec0 39bd
00000020: fe0b 15bd ad17 bcbd 80c3 1f3c b4a6 57bd
00000030: 083c 1a3d 5eed 183d a7a6 76bd ba10 81bc
00000040: 575e 0d3d a4ee 893d 8ded af3c 4734 abbd
00000050: 8217 733c 083b 443b 81fc 36bc da86 92bd
00000060: 112e b7bd 1454 ebbc 9b3d 3d3d ca3b f0bc
00000070: 0fdc 17bd 9a20 833d 9cbb 323d b427 65bc
00000080: 507d 8d3d 7dec 7d3d 0473 f6bc 09b9 ad3d
00000090: 4a57 973c 2f3e c73d b588 533c 9728 2c3d
000000a0: 4e0b af3d 4213 50bd b65a 2d3d 1698 c83d
000000b0: e7fa 223d fc31 b03d 06f0 f03a ca98 1dbc
000000c0: da27 f9bb 6978 7a3d 69a7 203d 1359 c43d
000000d0: dc5c d53c 15b8 a6bc e0c5 d83b f2b1 23bd
000000e0: 35ae 033c c5e4 61bc 4e7d 113d a0ba e8ba
000000f0: addc 6d3d 2162 f03c 2ad8 75bd eb28 0b3d
00000100: e1f1 01bd 3eb8 26bb aa58 9f3d 96d8 83bc
00000110: c7be a1bd a51b 5b3d 3585 cdbb 5b1a 54bd
00000120: 854f e13c eb1a b73c b7bf 813d 469b ae3d
00000130: f673 cdbb 1628 cdbc f66f c43d 908a 89bc
00000140: 01ca cd3d 88ee 3f3d 5eb6 dd3c 4480 3dbd
00000150: bca0 c1bc d723 71bd 3a39 d9bc fdfa d33b
00000160: 3534 903d f1a8 ff3a 71be 7f3d f3f6 e3bc
00000170: 2332 7f3c 1480 963b 28ba de3c f15c bf3d
00000180: 1ae3 62bd c09a 723d 0266 4dbc 360e 1e3d
00000190: 166f 87bd 7ad0 063d c122 67bd 9198 9abd
000001a0: 2078 dcbc bc9f 72bd 9d72 49bd 2296 e73c
000001b0: 6550 bdbd 85e2 97bc 932c 483d 29c3 0ebd
000001c0: f82e 77bb 4ef8 aebd c0b7 083d 1ece 7a3d
000001d0: 2a04 b6bc befc 4e3d bdcc 48bd 8ecd 6b3b
000001e0: 38a2 ab3d a81c a43c d301 073d c99f 863d
000001f0: a27f 903d 395d ea3c b812 4e3d 1b22 24bd
00000200: 4a9f 51bd d14f 8d3d dac3 873b 559d 8e3d
00000210: bd15 59bd bfb2 0a3d 9e78 45bc 2ea4 b73c
00000220: 3e20 53ba 46ee 0d3d e1fb cebb b628 443d
00000230: 06f7 23bc 5061 243c 2cc3 bdbc a6f6 61bd
00000240: 22f3 973d ef99 7b3d 5d23 d43b 577d a2bd
00000250: 606a 9c3c 77c7 8b3b 8ca3 d93b 74e9 8f3c
00000260: d7f1 3c3d 84f5 af3c de95 8f3d f608 203d
00000270: ef9a efbc 5961 0bbd d75b 3cbd b271 9b3c
00000280: c21b 653c 7b2c 123c e38a a13c 5f94 b5bd
00000290: a364 b3bd 1de4 4aba c0db 5c3c 694e 8bbd
000002a0: 6381 7c3d 7317 b23d 85c6 723d 24dd 7b3c
000002b0: a788 1dbd e2ba 27bd a839 96bd b014 543d
000002c0: 5f28 42bd d63c b7bc ad0d b53c 992f c63c
000002d0: 1a47 b33d d6c9 673d 3558 7abd 0d84 f33c
000002e0: b56d 2dbc 8d6b 24bd 72a3 d7bc f932 c1bc
000002f0: 5a31 a1bd c1c8 173d 44f0 a6bc 7336 bc3d
00000300: ec2b 2a3c 2a8c 8c3d f988 a63d 6320 b13d
00000310: dcfc 99bd bc15 08bd 0ba3 8c3d 5b24 e73c
00000320: 0e67 9c3d 6f7f 2abd a62c 1cbd e9b0 463b
00000330: bc8b 773d ae40 f83b 0187 113d af15 80b8
00000340: 89f6 99bd 01c5 ebbc 41ca ba3d dbdf 1cbd
00000350: 85fa 953b b0c8 2c3d eb21 90bd f66f 56bc
00000360: 8644 823c ff89 963a c798 703d c4cd 8e3c
00000370: 3ada 783d 5c0c 633b a650 39bd 2016 443d
00000380: c211 8b3c 599f ae3c 6949 5a3d 52af cfbc
00000390: d0d9 81bd 41c3 8cbd 3d84 52bc cc17 15bd
000003a0: 14fe 06bd ee92 d2bb 6c24 3fbd 63a1 92bd
000003b0: 58ac 8fbc a311 033b f632 0abd 4b05 99bd
000003c0: 182d 113c ec47 7ebd 871b 213d ae14 f5bc
000003d0: 46fb 9bbd 0917 653d c847 6bbd 7516 58bd
000003e0: 4b22 393d 6526 133d 5839 80bd 4191 b83c
000003f0: bea3 523b b86e babd 08bd debc f129 323d
0.07556881 0.08012418 -0.032631267 0.035972346 0.067877375 0.06959956 0.08101556 -0.04534953
-0.03638839 -0.09184203 0.009751201 -0.052649215 0.037654907 0.037335746 -0.060217526 -0.015755046
0.034513798 0.0673497 0.021475578 -0.083595805 0.014837148 0.0029942412 -0.0111686 -0.07154627
-0.08944333 -0.028726615 0.04620133 -0.029325385 -0.0370751 0.06402703 0.04363595 -0.013986517
0.06908667 0.06199311 -0.03008414 0.08482558 0.01847424 0.097286575 0.012911011 0.042030897
0.08547078 -0.050799616 0.042322837 0.09794633 0.03979006 0.08603284 0.001838208 -0.009618947
-0.0076036276 0.06114999 0.039222155 0.09587302 0.026045255 -0.020351449 0.0066153854 -0.039964624
0.00803714 -0.013787453 0.03551989 -0.0017755814 0.05807178 0.029343667 -0.060020603 0.03397457
-0.031724814 -0.0025439407 0.07780583 -0.016094487 -0.07897716 0.05349316 -0.006271983 -0.051782947
0.027503738 0.022351703 0.06335395 0.0852571 -0.006269927 -0.025043529 0.09591667 -0.016789705
0.10048295 0.04685834 0.027064499 -0.0462649 -0.023636214 -0.05887207 -0.026516546 0.006469129
0.07041208 0.0019505305 0.06243748 -0.027827716 0.015575918 0.004592905 0.027188376 0.09343899
-0.055392362 0.059229612 -0.012536528 0.03858777 -0.06612985 0.032913662 -0.05642963 -0.07548631
-0.026912749 -0.059234366 -0.04918157 0.028269831 -0.0924385 -0.01854063 0.048870634 -0.034854088
-0.0037717205 -0.08543454 0.033378363 0.061231725 -0.022218782 0.050534002 -0.04902338 0.0035980674
0.0838055 0.020033196 0.032960724 0.06573445 0.07055594 0.028608905 0.05031082 -0.040071588
-0.0511773 0.068999894 0.0041432204 0.069636025 -0.052999247 0.03386187 -0.012052683 0.022417154
-0.00080538157 0.034651063 -0.0063166474 0.047890387 -0.010007625 0.010032967 -0.023164354 -0.055166863
0.07419421 0.0614261 0.006473942 -0.07934063 0.019093692 0.0042657214 0.0066418108 0.017567374
0.046129074 0.021479376 0.07011007 0.039071046 -0.029248683 -0.034028385 -0.045986023 0.018975113
0.013983669 0.008921738 0.019719547 -0.0886619 -0.08759429 -0.000773968 0.013480127 -0.06802065
0.06164683 0.08695879 0.059271354 0.015372548 -0.0384604 -0.04094971 -0.07335216 0.05177754
-0.047401782 -0.022367876 0.022101248 0.024192618 0.08753796 0.05658897 -0.061119277 0.029726053
-0.010585238 -0.04014163 -0.026323054 -0.023583876 -0.07870741 0.03705669 -0.02037824 0.09190073
0.010386448 0.06862672 0.08131594 0.086487554 -0.07518932 -0.033223853 0.068670355 0.028215578
0.076368436 -0.041625436 -0.038128518 0.003031785 0.060435995 0.00757607 0.03552914 -6.1075545e-05
-0.07517726 -0.028780462 0.09120608 -0.038299423 0.0045769834 0.042183578 -0.07037719 -0.013088217
0.015901815 0.0011485218 0.05873945 0.017432101 0.060754992 0.0034644818 -0.045242928 0.047872663
0.016976241 0.021316217 0.053292666 -0.025352154 -0.063403726 -0.06873179 -0.012848911 -0.036399648
-0.03295715 -0.006426207 -0.046665594 -0.07159688 -0.017538235 0.0019999526 -0.033740006 -0.07471713
0.008860849 -0.06208031 0.039332893 -0.029917087 -0.07616286 0.05593017 -0.057441503 -0.05275579
0.04519872 0.035925288 -0.062609375 0.0225302 0.0032141055 -0.09103149 -0.027189746 0.04349703

fc1.bias f4 [64]
00000000: 1abe 613d db25 82bc 953b a7bd 3e0a b3bd
00000010: 59ec b5bd 8ea9 4b3d 8551 8e3d 6731 8b3d
00000020: e522 8cbd b02c 95bd 2135 d83c 8b81 6ebd
00000030: c4f9 8ebd 95d8 2b3d 3390 4e3b 27ec a7bd
00000040: 0aa5 453b b353 b7bb 2019 9b3d a996 c0bd
00000050: 52e8 e3bc fc88 08bc 45b4 25bd 3ab9 913c
00000060: dc6e b93b 67f3 72bd 2c87 a33c ff1b 2e3d
00000070: 91e9 04bd 1a2d 493c b41d e33c 1764 a2bd
00000080: 4cec e7bc 7706 2fbc e532 493d 5eca 543d
00000090: 8d7a ae3d 2a33 8a3d 0d9e 283c b831 623c
000000a0: 47fd 0dbd 5c68 2d3d 9c8b a6bb 3258 16bd
000000b0: d81f 443c b8ee 8a3d 6311 a9bd c7ba 3cbd
000000c0: 139e 9ebd f3f7 5ebd 7a70 0f3d 8cca 85bd
000000d0: 6a84 003d e5b5 083d 6708 b2bc 9e63 153c
000000e0: 85dc 713d 1390 15bd a0d7 41bc 599f 9dbd
000000f0: 6b73 863d e8dc 36bd 0cb0 103c d602 d7bc
0.055112936 -0.015887192 -0.08165661 -0.08742188 -0.0888297 0.049722247 0.06949142 0.06796532
-0.06842593 -0.07283914 0.026392521 -0.05822901 -0.06981233 0.041954596 0.0031519055 -0.08199339
0.0030158185 -0.0055946945 0.075731516 -0.09403736 -0.02782074 -0.008333441 -0.04045512 0.017788518
0.0056589674 -0.059314158 0.019961916 0.042507168 -0.03244931 0.012278819 0.027724124 -0.07929247
-0.028310917 -0.010682694 0.049120802 0.051950805 0.085194685 0.0674804 0.0102915885 0.013805799
-0.034665372 0.042335853 -0.0050825607 -0.036705203 0.011970483 0.06783813 -0.082552694 -0.046076562
-0.07744994 -0.05443568 0.035019375 -0.065327734 0.03137628 0.033376593 -0.021732522 0.009117989
0.059048194 -0.036514353 -0.011831194 -0.07696409 0.06564983 -0.044644266 0.008831035 -0.02624647

fc2.weight f4 [7, 64]
00000000: fa27 9f3d a446 cfbc 807e a63a 5878 e23d
00000010: 0f18 dbbd 9f49 c1bd 2eb4 e2bd 9be9 8a3d
00000020: 89c5 65bc cb3a 923d d489 ecbd eed6 87be
00000030: 9e7b 933d f947 f73d d86b 47bd 00cb 5e3b
00000040: d669 d93c 3269 96bd ffdc 803d 45fd d2bd
00000050: 16c9 503c 16db 973d f067 453d 8533 87bd
00000060: ca9c 723e f903 03bd afef 823d 17ae dc3d
00000070: f43b aabd b385 67be 1105 d4bd 6ba7 d5bc
00000080: 940b 92bd 6f05 ebbc b4c2 043e 1987 d33d
00000090: 1cd2 983d 174e bd3d 4f06 24bd 96ca 0e3d
000000a0: 84a3 17be e88e b7bc 0fa1 773d d292 333d
000000b0: d853 243d 4d69 8abd bcf8 e8bd 12c3 9fbd
000000c0: 98e5 56be 6416 debd 9a2e b13e 609b a8bc
000000d0: 0d9c 0cbe f1f2 143e 9503 f33d c799 6abe
000000e0: 301e 8a3d 6196 72bd e603 963d 716a 403d
000000f0: a287 ab3d 5028 383c 7af7 1dbd 900f 193d
00000100: 9d45 fcbd 7476 0d3c bcd4 8c3d ee21 253c
00000110: 755a febd bc7b e1bb 5f35 963d c6aa c7bd
00000120: cb17 debd 8ee2 99bd 0b20 ecbd 7a34 cabd
00000130: d894 8bbd 936d 043d fdd9 83bd e06d 6bbc
00000140: ccd1 6d3d ed71 5c3c 9841 b83a 7cc1 f53c
00000150: 8b17 a13d ebfc 17bf 0075 ccbd 5983 6b3d
00000160: 9feb 89be 3032 9cbe e928 e7be f1e1 44bd
00000170: fe9c 8e3d 12a3 d6be bd2b a13d 5116 95bd
00000180: eccb 983c cd48 d43d 6dd1 43be 5fac 803b
00000190: 94fa 8fbd 6642 cebd f10b 523d b742 d2bd
000001a0: c829 57be 1f77 a93d a92f 7cbd 393b 17be
000001b0: 0239 d23d c322 c73d d4f6 1e3d c3e1 80bc
000001c0: 476e 83be e634 b4bc 40a9 8ebd babf ccbd
000001d0: 11e3 44be d308 97bd 7949 9abe 0e49 7fbe
000001e0: 44d2 4c3d 9f79 cb3a 6683 f5bd 5a4a e23d
000001f0: d808 723d b475 cc3d 150d 98be 8065 94bd
00000200: 151e 1e3c 5eff 2d3d 7ed2 f33d 6310 a0bd
00000210: ad60 2abd d417 e9bd ff76 ddbc c2f3 59bb
00000220: d61b e33d 49b7 663c 0eae fe3b e557 cbbd
00000230: e8f1 093d 9368 513d 1325 aebd f483 aabd
00000240: 643a a53c 0311 04bd 87a3 3fbd e989 473d
00000250: db10 11bd 2a4d 37be c249 f3bd db38 783d
00000260: d728 153e a938 863d 69b0 97be 4a84 ef3d
00000270: f47c e63d 0bf9 713d 9dd0 25bd 0679 a3bd
00000280: deec 9e3c 3adc e0bd 867f 1f3d a4d5 a43b
00000290: 9aeb d9bd df32 f5bd 1d24 2dbd 903e c4bd
000002a0: c8d8 4abd ae76 5abd bd9a 3ebd 6dbe 2cbe
000002b0: fa87 afbd 9d04 5f3d 00d6 253c 2fa6 34bd
000002c0: b6a8 763c cbcc 5d35 7241 61bd 00d2 4b3c
000002d0: b61d 8c3d b36e d4bc 4576 3c3e a888 8ebc
000002e0: 9677 ac3c 19bd 443d 4092 e13d 35d0 523d
000002f0: 60e1 7c3c f04c 29bc 9141 a93d a8d6 5cbd
00000300: 1ca1 d8bd fec1 04bc b032 38bd 3229 5fbc
00000310: 3704 01bd 8215 e2bc 77d4 9ebd 4d35 3dbc
00000320: d27c f1bd b263 243c 0390 79bd 557e 063f
00000330: 5413 323d 3b9f 99bd 2345 f33e 50e0 c23c
00000340: 71e6 0d3d bfcb c4bd a3f2 a2bd c942 87bb
00000350: 8a75 28bd 4a76 253e 62bf de3d fd33 9f3c
00000360: c44b 0cbf 58a6 d9be 44f4 2d3e 335f c7bc
00000370: b297 c1bd c8ff 03be cf6f d8bd 5add 843c
00000380: ad34 afbc 4cde 26bd be24 cd3d 2545 ccbd
00000390: 58a0 a43d c94c b33e 6a4d f6bc 2ce7 c03e
000003a0: 4cec ba3e 347f b9bd ca3f d9bd 045f 67bd
000003b0: 7c10 c8bd 305b 203d 1c23 4fbd c372 8fbb
000003c0: 0ddf bb3d 9587 2f3d f9fd 96bd c043 323b
000003d0: ef14 993e 900b 813e 4b50 12bf e0cd 983e
000003e0: 8167 b0bc e17f ca3d a8f1 eebc c402 0cbd
000003f0: d8f3 f8bc d002 6c3d ef37 9abe f03e 0b3d
0.07771297 -0.025302239 0.0012702495 0.1105811 -0.10697948 -0.0943787 -0.11069523 0.06782838
-0.014024147 0.0714012 -0.11549726 -0.26531166 0.072013125 0.120742746 -0.048686832 0.003399551
0.026539724 -0.07344283 0.06292152 -0.103022136 0.012743255 0.07414834 0.048194826 -0.066016234
0.23692623 -0.03198621 0.06393372 0.107753925 -0.083122164 -0.22609596 -0.10352529 -0.026080808
-0.071311146 -0.028689114 0.12964898 0.10328502 0.0746195 0.0924341 -0.04004508 0.03486117
-0.1480847 -0.02240701 0.06045633 0.04384119 0.040119022 -0.06758366 -0.11375567 -0.078008786
-0.2098602 -0.108441144 0.34605867 -0.020581901 -0.13731404 0.145458 0.118659176 -0.22910224
0.06744039 -0.059225444 0.07324962 0.04697651 0.08375479 0.01124008 -0.03856609 0.037368357
-0.12317965 0.008634198 0.06876513 0.01007889 -0.12419597 -0.0068812054 0.073343985 -0.09749369
-0.10844382 -0.07513915 -0.11529549 -0.0987329 -0.06815499 0.03233106 -0.06438062 -0.014369458
0.058061406 0.013454896 0.0014057634 0.029999487 0.078658186 -0.593703 -0.099832535 0.05749831
-0.26937577 -0.3050704 -0.451484 -0.048067037 0.06963538 -0.41921288 0.078696705 -0.07279647
0.018651925 0.10365448 -0.19122858 0.0039267982 -0.07030216 -0.10071258 0.05128092 -0.10266631
-0.21012032 0.08274674 -0.06156889 -0.14768685 0.102647796 0.09723427 0.038809612 -0.015732652
-0.25670072 -0.02199788 -0.069658756 -0.099975064 -0.19227244 -0.0737473 -0.3013418 -0.24930212
0.050005212 0.0015523917 -0.11987953 0.11049338 0.059090465 0.099833876 -0.2969748 -0.07245922
0.009650727 0.042479865 0.119053826 -0.078156255 -0.041596103 -0.11381498 -0.02703428 -0.0033256863
0.11089294 0.0140817845 0.007772214 -0.09928874 0.033677965 0.05112512 -0.08503165 -0.08325949
0.020169444 -0.032242786 -0.04678681 0.048715506 -0.035416465 -0.1790053 -0.118793026 0.060601097
0.1456636 0.06553776 -0.29626778 0.11695154 0.11254302 0.059075397 -0.040482152 -0.07982068
0.019400056 -0.10979505 0.038939975 0.0050303508 -0.106406406 -0.119725935 -0.04227077 -0.09582245
-0.049523145 -0.053335838 -0.04653429 -0.16869517 -0.08570857 0.05444776 0.010121822 -0.044103798
0.015054872 8.262693e-07 -0.054994054 0.012440205 0.068416044 -0.025931692 0.18404491 -0.017399147
0.021053117 0.0480319 0.11014223 0.051468093 0.015434593 -0.010333285 0.08264459 -0.05391565
-0.10577604 -0.008102892 -0.044970214 -0.013620662 -0.03149816 -0.027598146 -0.07755368 -0.011548352
-0.11791386 0.010033535 -0.060928356 0.5253652 0.043475464 -0.07501074 0.47513685 0.023788601
0.034643594 -0.09609174 -0.079564355 -0.0041278345 -0.04112772 0.16158405 0.10876347 0.01943397
-0.5480311 -0.42509723 0.16987711 -0.024337387 -0.09452762 -0.12890542 -0.10568201 0.01621883
-0.021387422 -0.040739343 0.10016774 -0.09974126 0.08038396 0.3501952 -0.03006621 0.3767637
0.36508405 -0.09057465 -0.1060787 -0.0564871 -0.09768769 0.039149463 -0.050570592 -0.0043776943
0.09173403 0.04285391 -0.0737266 0.0027201027 0.29898784 0.25204134 -0.5715377 0.2984457
-0.02153373 0.09887672 -0.029167965 -0.034182325 -0.030389711 0.05761987 -0.301208 0.03399557

fc2.bias f4 [7]
00000000: 3c10 4fbd 74f7 bebe 96c6 383c 89ff 983d
00000010: 84f8 d7bd 5b7c 3ebd e035 823e
-0.05055259 -0.37298167 0.011277815 0.074706145 -0.105454475 -0.046505313 0.25431728
